lib/assets/tensorflowmodel/model.tflite (tflite, 11528 bytes, 5 tensors)

model/dense_1/MatMul;model/dense_1/Relu;model/dense_1/BiasAdd f4 [32]
000000 f5 40 68 3e 2b d8 ec 3e ec 06 b1 be 24 56 0d 3f
       0.22681029 0.46258673 -0.34575593 0.55209565
000010 d6 0d 58 be 9e 78 f1 be 31 5d 0f 3f 8c 2e 6a 3e
       -0.21099028 -0.47162336 0.56001574 0.22869319
000020 72 ae 2d 3f 0a 29 84 be 17 02 0d 3e 44 26 a1 be
       0.6784431 -0.2581256 0.13770328 -0.31474507
000030 43 2d fa 3e 3f 96 2b 3e ed a0 78 3d 89 9d 0c be
       0.48862657 0.16756533 0.060700346 -0.1373197
000040 20 79 14 3f 6e 17 35 3f 60 f4 03 3f f6 cd e6 3e
       0.5799732 0.70738876 0.5154476 0.4507901
000050 2e 66 19 be d5 34 25 bd 54 a4 9e 3d 89 40 18 be
       -0.14980385 -0.040333588 0.07746187 -0.14868368
000060 17 6b ae 3d 81 79 cb be ab 62 87 be f4 aa bd 3d
       0.085165195 -0.39741138 -0.26442465 0.09261122
000070 47 ad 29 be 4c 39 a3 3e 68 90 cf 3e 6a 8b d0 be
       -0.16570006 0.31879652 0.4053986 -0.40731364

model/batch_normalization/batchnorm/mul_1;model/batch_normalization/batchnorm/add_1;model/dense_1/MatMul;model/dense_1/Relu;model/dense_1/BiasAdd f4 [32, 64]
000000 ed b9 03 3f 05 b9 79 be ec 22 22 3e 5c 2c 06 be
       0.51455575 -0.24386986 0.15833634 -0.1310286
000010 3c 6d d0 3d c5 65 fb bd e3 db 82 bd 0a a8 1f be
       0.10177085 -0.122752704 -0.06389596 -0.15591446
000020 0f f9 c0 3d 40 8c da be 59 4d e4 3d 0f 32 38 bb
       0.09422504 -0.42685127 0.111475654 -0.002810601
000030 a6 79 bc 3c e3 74 61 bd 0b a9 12 bf 37 9e 97 3e
       0.023007225 -0.055043112 -0.5728919 0.29612896
000040 99 42 00 3e 71 26 1d bd 87 92 28 be 9f 47 9c 3e
       0.12525405 -0.03836674 -0.16462146 0.30523393
000050 db 3e 79 be 1b 42 03 bf 68 63 ec 3e c7 8d be 3e
       -0.24340384 -0.51272744 0.4616959 0.37217543
000060 ba 4d 07 3f 5a 4f 07 3f 76 dc f5 be 46 85 b5 3e
       0.52852976 0.52855456 -0.4801976 0.35453242
000070 54 21 f4 be 5a 80 cc 3d 8d ad 3f 3e b5 18 8a be
       -0.47681677 0.099854186 0.18718548 -0.26971975
000080 25 11 d3 be 0c 31 26 3e 2d 17 0b 3f 91 0e 63 be
       -0.41224018 0.16229647 0.5433224 -0.22173525
000090 5e 5d d1 be b6 d6 6c 3e 7e 1c 0b 3c 06 c5 83 ba
       -0.40891546 0.2312878 0.00849068 -0.0010053224
0000a0 a3 25 20 bf e9 7e 6b be 51 49 20 bd 98 3a 91 be
       -0.6255743 -0.22997631 -0.03913242 -0.28365016
0000b0 3a 1d a8 3e 13 3d 54 3d 41 86 58 be 3d 84 3e be
       0.32834798 0.051816057 -0.21144964 -0.18605132
0000c0 0b ad 55 be 08 52 9f 3b 9b 26 1f 3e ed f3 aa bd
       -0.20866792 0.004862074 0.1554207 -0.083473064
0000d0 21 3e 27 3e 93 4f 9b 3e 8f a9 d6 be c5 dc ed 3e
       0.16332294 0.30334148 -0.41926238 0.46457496
0000e0 f9 f4 e8 3e 45 46 d1 3e 86 f7 01 3f 1a 4c d3 bd
       0.454994 0.40873924 0.50768316 -0.103172496
0000f0 07 68 e7 3e 52 88 e2 3e 29 e0 76 be 31 28 65 bb
       0.45196554 0.4424463 -0.24108948 -0.0034966583
000100 77 c2 03 bf 3e e7 07 3f a8 f1 69 be 38 fe 60 be
       -0.51468605 0.5308722 -0.22846091 -0.21971977
000110 c4 a2 9d 3e ff 68 69 3d 22 c8 2e be 39 1c 8f 3e
       0.30788243 0.056984898 -0.17068532 0.2795122
000120 3a e5 8e be c4 dc 1c 3f 61 07 57 be 9a 1c 02 3f
       -0.2790926 0.6127436 -0.20998909 0.5082489
000130 4b c7 a3 be 42 1c 34 3d 88 2e 1f 3e 43 46 fc be
       -0.31987986 0.04397226 0.15545094 -0.49272355
000140 dc dd 51 bd 47 e8 8c 3e 81 81 06 3e 0d f6 a1 be
       -0.051236972 0.27520964 0.1313534 -0.31633034
000150 b0 0a a1 3e c8 80 e0 3e 7a df 10 3f 5d 7e a2 3e
       0.31453466 0.43848252 0.56591 0.31737033
000160 42 04 3f be cd 1a 33 be 80 66 05 bd d5 d0 cd be
       -0.18653968 -0.17490692 -0.032568455 -0.4019839
000170 75 ee 73 3e cc 4d 91 3e 12 a1 db bc 42 14 ca be
       0.23821433 0.28379667 -0.026810203 -0.3946858
000180 5f 49 d3 be 55 6f 56 be 60 6e 54 3e fe 94 bc be
       -0.41266915 -0.20940907 0.2074523 -0.36832422
000190 ef e7 e3 3d 86 ba b0 3e 9d 4e d2 be 43 71 ac be
       0.11128222 0.34517306 -0.41075602 -0.33680162
0001a0 d9 36 e5 bd 78 f3 10 3f 4c ac 71 3e 8e e2 ca be
       -0.11192102 0.56621504 0.23600882 -0.39625973
0001b0 ae 12 70 3e 6b b1 85 3e 50 57 d6 be 0a f1 dc be
       0.23444626 0.26111922 -0.4186349 -0.43152648
0001c0 6f c8 70 3e 91 71 0e 3e 40 0f d2 be 10 c9 c3 3e
       0.2351396 0.1391051 -0.4102726 0.38239336
0001d0 83 91 bc b9 fd 98 df bc 3e 1b a2 3e b1 44 04 3e
       -0.0003596657 -0.02729463 0.3166141 0.12916829
0001e0 5c 17 1a 3f 8f 0a 8c be 8d 82 70 be bc a0 86 bd
       0.60191894 -0.27351806 -0.23487301 -0.065736264
0001f0 3b 55 04 3f 10 85 3f 3e 5f c7 0e 3f 4e 52 04 be
       0.5169255 0.18703103 0.55772966 -0.12922022
000200 6e d4 56 be e9 93 84 3c 4f 64 94 3e dd 8f 7f 3d
       -0.20979473 0.01618381 0.2898278 0.062393058
000210 b5 bf fe 3d f5 3e 4a 3e 5c 78 cc 3d 59 d6 c3 bd
       0.12438909 0.19750579 0.09983894 -0.09562368
000220 02 23 8a be 1a fd a8 3d 74 03 84 be e8 ec 76 3e
       -0.26979834 0.082514 -0.25783885 0.2411381
000230 5d f9 0b be 03 7a 72 bd b1 e6 8e be 93 14 37 be
       -0.13669343 -0.05919839 -0.2791038 -0.17878942
000240 64 7d 99 3e 6c 23 89 3e 47 6c 5a 3e b0 7d 92 3e
       0.29978478 0.26784837 0.21330367 0.28611517
000250 33 16 cb 3e 38 b8 a9 be 9a 4c 67 3e 30 42 6e be
       0.39665374 -0.3314836 0.22587815 -0.23267436
000260 43 90 62 bd f8 54 c0 be cb d2 b7 be 4d 46 3a be
       -0.05531336 -0.37564826 -0.3590301 -0.1819088
000270 1d bf 33 be 5b 83 4c bd 92 d2 73 be ac 7f 05 3e
       -0.17553373 -0.049929958 -0.23810795 0.13036984
000280 27 7d aa 3b 81 1e c6 3d 90 57 99 3d 0e 77 c1 3e
       0.0052029076 0.09673787 0.07487404 0.37786144
000290 46 55 94 3e 01 9d 8f 3e e8 9f 74 be a7 57 6b 3e
       0.28971308 0.28049472 -0.23889124 0.22982655
0002a0 f1 c4 9e be 68 ca c2 bd 1c e4 8a be 2a 0b d3 3c
       -0.3100963 -0.09511262 -0.2712716 0.02576216
0002b0 ed 74 97 be ea 34 62 3e af d2 21 be 9f 33 16 3d
       -0.29581395 0.22090498 -0.15803026 0.036670323
0002c0 ea 43 b4 3e 1d 76 3f 3e 26 ae 80 3e ce cb 8f 3e
       0.35208064 0.186974 0.25132865 0.28085178
0002d0 77 7c 01 3d d7 3b 84 3e 47 01 9a be 80 49 08 3d
       0.03161284 0.25826904 -0.300791 0.03327322
0002e0 1f 6e 6c be ea 2e cc 3e 72 d7 58 3e 8f 94 af 3d
       -0.23088883 0.39879543 0.21175936 0.08573257
0002f0 8f ed a0 be ca dc d9 be 40 c1 99 be c7 e8 6e be
       -0.31431243 -0.4255126 -0.3003025 -0.23330985
000300 6e 98 b9 be b5 4e 6f 3d ab f2 11 bf 75 ac ca be
       -0.36249107 0.05842467 -0.57010907 -0.395847
000310 ad 17 02 3f cd 4c f3 be 2f 13 ff be dc 93 3f 3d
       0.50817376 -0.47519532 -0.49819323 0.04677187
000320 34 b7 0f bf 11 8c d1 3e 33 43 8a 3e 3a 3f 06 bd
       -0.5613892 0.40927175 0.27004394 -0.03277514
000330 c5 3d 19 3e ee a4 f9 3e a9 74 c5 3e df bc 19 3e
       0.1496497 0.48758644 0.38565567 0.15013455
000340 03 69 30 3e b9 e8 46 be 96 b5 48 bd d3 1b 5e be
       0.17227559 -0.19424714 -0.0490013 -0.21690302
000350 4a 35 bf be ae 40 f9 3d b1 cb 10 3f c9 2e 77 3e
       -0.37345344 0.1217054 0.5656081 0.24138941
000360 c7 ea fa be 82 46 90 be 96 71 a1 3e cb cb 99 bc
       -0.49007246 -0.28178793 0.31531972 -0.018773934
000370 22 df ef 3d 59 28 02 3e 37 cd 96 3e ea ae c2 be
       0.11712481 0.12710704 0.29453442 -0.38024074
000380 ba eb 42 bd 0f a1 e6 bd da db d3 be 55 9a ea bd
       -0.047588088 -0.11261188 -0.4137867 -0.11455218
000390 51 cc 91 be 90 47 94 3d 73 52 98 3e 79 fa c9 3e
       -0.28476194 0.07240212 0.29750404 0.39448908
0003a0 bc c2 ad 3e cc dc 43 3d bb 85 3e bc 81 c1 65 be
       0.33937633 0.04781799 -0.0116285635 -0.22437097
0003b0 18 13 47 bd 0f dc c4 bd 70 b0 fa bd a8 ab d5 be
       -0.048602194 -0.09612285 -0.12240684 -0.41732526
0003c0 c3 a8 ac be a2 ce b5 be bf 68 b1 be cc 42 39 3d
       -0.33722505 -0.3550921 -0.34650227 0.045229718
0003d0 ef 3e 75 3d df 5d c7 3e 26 ec 7d be f9 8b cc be
       0.05987447 0.38938805 -0.24797115 -0.3995054
0003e0 d6 53 a3 bd 14 f6 10 3e 20 56 d0 bd 5f 80 eb be
       -0.07974975 0.14156371 -0.10172677 -0.45996377
0003f0 b8 b3 f6 bc 69 46 5e be 51 71 b8 3e bb b7 02 3f
       -0.030114993 -0.21706547 0.36023954 0.510616

model/dense/BiasAdd/ReadVariableOp f4 [64]
000000 f4 83 21 bd 9d 90 71 3d 5e b6 08 3d fb fa 81 bc
       -0.03943248 0.058975805 0.033377044 -0.015866747
000010 c2 c1 4d 3d 32 30 ab 3d 48 60 e3 3c 90 36 5c 3d
       0.05023361 0.08358802 0.027755871 0.053762972
000020 33 f2 86 3d 22 40 2c 3d 24 b7 05 3d 34 7d af 3b
       0.065891646 0.04205335 0.03264536 0.0053555015
000030 f4 5a b6 3c 68 51 87 3d 73 85 08 bd f7 f2 ce 3c
       0.022260167 0.06607324 -0.033330392 0.025262339
000040 aa 0e 8e 3c 09 84 93 3d 71 0e 5d bd 98 51 1e 3d
       0.017340977 0.07202918 -0.05396885 0.038652033
000050 e3 07 aa 3b 14 fb aa 3c da f0 94 3d 06 9a 79 3d
       0.0051889285 0.020871677 0.07272501 0.060937904
000060 fe 06 e9 3c 1c 7d 8c 3d ee dd 4e bb 7a 44 6c 3d
       0.028445717 0.068598 -0.0031565386 0.05768249
000070 c2 03 bd 3c 8a 9b 91 3d 99 0f 0e 3d af a2 2d 3c
       0.02307308 0.07109745 0.034682844 0.010597869
000080 df 4c 7f 3c 85 8f a9 3c 35 1b bf 3d 51 d2 04 3d
       0.015582292 0.020698318 0.09331361 0.032427136
000090 9c e3 21 3d fe b8 8e 3d 4c f9 e4 3a c8 24 a1 3d
       0.039523706 0.06968878 0.0017469316 0.078683436
0000a0 ee 16 b6 3c ce 14 3d 3d 60 7e c5 3b d8 13 87 3d
       0.02222773 0.04616242 0.006027028 0.06595582
0000b0 5c db cc b9 29 81 17 3d 7f 8d 76 3d 3d ec 8d bc
       -0.00039073348 0.03698841 0.060193535 -0.017324561
0000c0 9e d5 13 3d ef 31 6a 3d 79 3a 44 3d 9e 02 d6 3c
       0.036092393 0.057176527 0.047907326 0.026124295
0000d0 77 8c 1e 3d 87 a7 16 3d 44 70 b4 3c 4e 3d 19 bb
       0.038708176 0.03678086 0.022026189 -0.0023382488
0000e0 63 68 ea 3c 1a 1c 99 3d cc 6a b8 3d ce a3 6c bd
       0.028614229 0.07476063 0.09004745 -0.057773404
0000f0 6f 32 2b 3c 1d 25 86 3c bd a7 b3 3b 90 3d db bb
       0.010449036 0.016375119 0.0054826424 -0.0066906884

model/dense/MatMul f4 [64, 3]
000000 28 a8 72 3d 9d e3 a9 be 4e c9 2e be d5 a8 14 bd
       0.059242398 -0.33181468 -0.17068979 -0.036293823
000010 09 f5 a1 3e 3d de 4f 3c 27 6e f6 3d 94 c7 08 be
       0.3163226 0.012687263 0.12032729 -0.13357383
000020 57 22 7b be 4f 9e 2f 3e 4c fa 26 3e 2f bb 3b be
       -0.24524818 0.17150234 0.16306418 -0.18333124
000030 a4 12 30 be 81 bd 9e 3e 83 e1 fd 3d 75 d1 1f 3d
       -0.17194611 0.31003955 0.123965286 0.039018113
000040 12 eb 38 be ca 54 38 3e 42 f0 2f 3e 4a de 2c 3e
       -0.18058422 0.18001094 0.17181495 0.16881672
000050 73 d8 d5 3c 7f c6 11 bd 37 6c 5d be a7 79 6b be
       0.026104188 -0.03558969 -0.21623312 -0.22995625
000060 1d ef 01 3e 4e c3 ab bd ed 37 ce 3d 9a 08 48 be
       0.1268887 -0.08386861 0.10069261 -0.19534531
000070 86 bf e5 3d 21 a2 b7 3d 3c ab 17 3e 54 7a 45 3e
       0.11218171 0.089664705 0.14811414 0.19284946
000080 53 b2 0d be a3 43 36 be 79 d3 37 3e 09 1d 17 be
       -0.13837557 -0.17799239 0.17951764 -0.1475717
000090 2d 4f d3 3d dd 67 ed bd c1 47 0e 3e b7 51 f7 bd
       0.10317836 -0.11592076 0.1389456 -0.12076133
0000a0 9f 4a ce bd ad 29 ac be 92 9a 11 3d 61 69 ba 3d
       -0.100728266 -0.33625546 0.0355478 0.09102131
0000b0 6c bd ae 3d 6c 81 d9 b9 2d 19 a9 bd b7 9c a2 3e
       0.08532223 -0.00041485892 -0.08256755 0.3176019
0000c0 9b 49 1b 3e 47 c5 98 be b7 8e a0 3d 66 af 57 3e
       0.15164797 -0.2983801 0.07839721 0.21063003
0000d0 f0 c0 b2 3c da f3 9b 3d 51 e3 65 be 3d a2 d7 3d
       0.021820515 0.0761487 -0.22449996 0.10528991
0000e0 50 10 64 3e 0b 0c 8e bc 90 71 8d be 12 a3 97 3e
       0.22271848 -0.017339727 -0.27625704 0.296166
0000f0 3a 05 06 bd af 5c cc 3d 9e 32 84 3e e0 01 a8 be
       -0.03271983 0.099786155 0.25819868 -0.3281393
000100 e2 49 04 be f6 9b 41 3e 5d 23 52 bc 5c 59 16 3e
       -0.12918809 0.1890715 -0.012825814 0.14682525
000110 77 ec dd bd 56 9e 01 3e 42 98 36 3e 9c 1f b2 bc
       -0.10836118 0.12658057 0.17831519 -0.021743588
000120 15 25 a4 3e 8f 38 19 be da cd 07 3c 58 d9 95 3e
       0.3205954 -0.14962982 0.008288825 0.29267383
000130 9a b9 b1 3d 18 cf 52 be 65 fe 55 be 09 a6 ce bd
       0.08677979 -0.20586812 -0.20897825 -0.100902624
000140 e4 9b b1 3e 04 8a 43 3d a8 33 96 3d 47 82 39 be
       0.34689248 0.047739044 0.073340714 -0.18116103
000150 f4 d4 76 be b0 82 ca bd 1b 7b 86 3d bd e8 e8 3c
       -0.24104673 -0.09888208 0.06566449 0.02843129
000160 e0 7b 73 3e 40 c8 50 be 4a cf 8f be d8 3e 1a be
       0.23777723 -0.2038889 -0.28087837 -0.15063035
000170 67 66 b7 bb 2f ca 97 3e 07 20 10 3e ed 0d fb 3c
       -0.005596924 0.2964644 0.14074717 0.030646289
000180 c3 dc 41 3e 20 36 8e 3e 66 98 96 3e 12 15 93 3e
       0.1893187 0.2777567 0.29413146 0.28727013
000190 8e e5 8c bd dc e9 93 3d fe 83 42 be 11 75 26 be
       -0.068797216 0.072223395 -0.18995664 -0.16255595
0001a0 2a 30 97 be a3 ca 74 be 40 da 44 be 5c 9f 95 3e
       -0.29528934 -0.23905425 -0.19223881 0.29223144
0001b0 ce ed 36 bd bc 40 3c 3e a9 e6 80 bd 20 18 79 bd
       -0.044660382 0.18384069 -0.06293995 -0.060814023
0001c0 e5 51 d7 3d 6c c6 34 bd 7c dc 69 bc 14 db 96 be
       0.10513667 -0.044134542 -0.014273759 -0.29464018
0001d0 c0 d6 db bd 71 d0 f9 3d 31 16 86 3e b6 fe 61 be
       -0.1073432 0.1219796 0.26188806 -0.22069821
0001e0 b8 61 45 3c 3f 56 76 3d fc 7f 9b 3e cc 0e 01 be
       0.012047224 0.060140844 0.30371082 -0.12603301
0001f0 b0 d4 4b 3e 7d 89 b2 bd d2 75 c7 bd e1 ef 41 3e
       0.19905353 -0.0871763 -0.09739269 0.18939163
000200 f2 25 1e bc c4 8a 87 3e 19 7d 11 3d 70 80 4b bd
       -0.009652602 0.26473057 0.035519693 -0.049683034
000210 1e 37 1f be 0c e8 cd 3d 2f f9 35 bd 84 81 8a 3e
       -0.1554837 0.10054025 -0.044427093 0.27051938
000220 13 75 24 be 5d c8 34 3e d1 17 32 3e f2 b7 ef 3b
       -0.16060285 0.17654558 0.17391898 0.007315629
000230 bf 5a aa 3e 17 8a c3 3d 62 76 52 3e 52 f6 4b 3d
       0.3327236 0.09547823 0.20552972 0.049795456
000240 bb fb 80 be b3 71 0a be 0a 5b 35 3e e8 a2 99 bd
       -0.25192055 -0.13519935 0.1771051 -0.07501775
000250 20 81 60 be fd fd 19 3c c4 db 52 be 7d b4 54 be
       -0.21924257 0.009398934 -0.20591646 -0.20771976
000260 2f dd 9c 3e ca ca 0d 3e fb a5 e5 3d 42 5e 1c 3e
       0.306375 0.13846889 0.11213299 0.15270332
000270 34 53 a4 3d f2 83 0a bd bf 24 f3 bc 3d e5 57 3e
       0.08023682 -0.03381724 -0.029680608 0.21083541
000280 ad d4 7c 3e 49 4b 02 3e 55 6a a3 bb 4b 65 86 3e
       0.24690504 0.12724032 -0.004987041 0.26249155
000290 ad 54 77 3e d2 09 93 3e a4 4a 9f 3b 2c 9f a6 bd
       0.24153395 0.2871843 0.004861193 -0.081358284
0002a0 31 50 d8 bb c8 63 11 3e 50 8a 48 be 3a af f3 3d
       -0.0066013564 0.1419822 -0.19584012 0.11898656
0002b0 b3 36 47 3e 3c 1a aa be 00 f9 9d 3b 82 02 52 3d
       0.1945446 -0.3322314 0.004820943 0.051271923
0002c0 b1 82 7e be ba 00 91 3e 74 1f 04 bd 21 62 81 3e
       -0.24854542 0.28320867 -0.03225656 0.2527018
0002d0 e9 eb 1f be 2c 1a a8 bb 0d 96 ee bd 2a 01 dc 3d
       -0.15617336 -0.005130073 -0.11649714 0.107424095
0002e0 a9 d9 d0 bd 30 c8 93 3d 1c 7a 19 be 2a 9f 79 3e
       -0.101977654 0.07215917 -0.14987987 0.24377123
0002f0 61 b5 8f 3e 0a ba 6e bd fd 7b 4b 3c 9e 15 9d be
       0.2806807 -0.05828289 0.012419698 -0.30680555

model/dense_2/MatMul f4 [1, 32]
000000 c4 92 40 3e 31 b0 7e 3e 3c 5f 64 be 63 56 79 3e
       0.18805987 0.24871899 -0.22301954 0.2434936
000010 54 ca 4a bd e4 57 24 3e 3d 4c fd 3e 4f fd 15 3e
       -0.04950936 0.16049153 0.49472228 0.14647411
000020 79 a3 bf 3e 4a 8b bc 3e ec 07 21 be ef c8 55 be
       0.37429407 0.3682502 -0.15725678 -0.20877431
000030 cd 51 4c 3e 0b d0 eb 3e a6 22 d6 3e 4d cc bc bd
       0.1995308 0.46057162 0.4182331 -0.09218655
000040 4e 2b 07 3f 7b 33 92 3e 10 54 dc 3e 1f eb 6d 3e
       0.5280045 0.285549 0.43032885 0.23234223
000050 69 6b 36 be 47 49 25 bd a7 18 be 3e 03 be 6c 3d
       -0.17814411 -0.040353086 0.37128183 0.057798397
000060 fd d2 11 3d 76 6f 65 bd 59 b5 12 be 47 38 eb 3e
       0.035601605 -0.0560145 -0.14326991 0.45941374
000070 78 49 9d 3e 7f e3 08 3f 3b 3c f3 3d f5 2c ad be
       0.30720115 0.5347213 0.118767224 -0.33823362
